rl_training/runs/ddpg/hover/20250929_190340/policy_actor_scripted.pt (torch, 291723 bytes, 6 tensors)

weight f4 [256, 10]
0.065387115 0.30353358 -0.30527014 0.05106079 -0.25299072 0.05125655 -0.043730926 0.21734695
-0.19534002 -0.16040592 0.16270006 0.07291715 0.12940322 -0.00954616 -0.29479447 0.27948833
0.07996258 -0.032628134 0.16109616 0.08080429 0.19436374 -0.027249899 0.2727029 0.2890231
0.007816947 0.17957641 -0.22993924 0.2147734 -0.17218708 0.21938829 0.06442285 -0.047151618
-0.16378348 0.09454657 0.005850393 0.30744466 -0.126813 -0.007565431 -0.091837 -0.114707224
-0.040731505 0.17674656 0.07407219 -0.110002905 0.24136494 0.234851 0.08872991 0.09128922
0.08909113 0.27424136 0.055793833 0.034546398 0.11133773 -0.07040711 -0.011877021 -0.31183305
-0.28933105 -0.18081753 0.08954983 0.25140083 -0.28402817 -0.23896445 -0.1766652 0.3078034
-0.09484246 0.13698836 -0.14236905 -0.063813254 -0.10251939 0.12319285 0.2361041 0.12844262
-0.2680483 -0.11161409 0.20229001 -0.24355727 0.25109118 -0.25082567 -0.08204279 0.2206314
-0.025885973 -0.24570617 -0.08774454 0.1342662 -0.11541707 0.14580458 -0.18793292 0.28982666
0.17702386 -0.061140325 -0.018771665 -0.30197978 -0.16569002 -0.21355744 0.23343453 -0.03188949
0.034040913 -0.03180324 0.016229512 -0.16036071 -0.09274075 -0.08752017 -0.00036777474 -0.22390798
0.059516437 -0.06920679 0.0645433 -0.23858097 -0.24472472 0.15829694 0.31093767 0.10942569
0.21880475 -0.047556937 0.15481994 0.22578044 -0.31199744 -0.057801664 0.16662593 -0.2650868
0.03230582 -0.18903904 0.16038315 0.25819018 0.2658625 0.08125752 0.04352672 -0.09012407
-0.22240235 0.24053878 0.2178337 0.1282153 0.13350144 0.12313306 -0.1706258 -0.009033476
-0.27570492 0.09859096 -0.25818798 0.101529464 0.0020203483 0.29096675 -0.13132483 0.17264034
-0.020728456 0.14762382 0.23850584 0.30409402 0.29560125 0.15487237 0.15792818 -0.22123411
-0.071833424 0.2558902 -0.30858302 0.20097649 -0.12881246 -0.18901013 -0.045053273 0.10080922
-0.24793626 0.10504183 0.20682774 0.035516914 -0.2006114 0.27118647 0.28447384 -0.1314797
0.19505745 0.15159711 -0.22983395 0.1994635 -0.29318228 0.05034518 -0.0031419557 -0.13864417
0.04163375 -0.034432553 -0.051467426 0.20791739 0.007455204 0.022189641 -0.23694529 -0.07572175
0.08966567 0.07589621 0.20273921 -0.20499377 -0.016651532 0.2910074 0.31061682 -0.21550672
0.19328873 0.0018806045 0.19117334 -0.06691348 0.2235863 0.12129498 0.12541246 0.07372726
0.111222304 -0.0040186816 0.28988507 0.1527623 0.077795215 -0.14619197 0.15746832 0.19886574
0.28022417 -0.08742299 0.25727436 0.22318076 -0.12718296 0.22196868 -0.31055835 0.18175113
-0.054152116 -0.1319868 0.14901716 0.023198873 0.19734304 0.20170484 0.007850611 -0.30339104
-0.2137991 -0.24160413 0.21442956 -0.09280887 -0.22123136 -0.29698345 -0.2971898 0.07329683
0.19326943 -0.1979543 -0.041535925 0.2794865 0.15436493 -0.128002 -0.1432314 -0.009910391
0.08061565 -0.18116902 0.30325454 0.082864515 0.22663714 -0.13456823 -0.21276186 -0.19677825
0.15209001 0.29549053 -0.16005325 0.29300907 0.25190344 -0.1299099 0.061498072 -0.004455405
00000000: aee9 853d c168 9b3e 5e4c 9cbe 1e25 513d
00000010: 0088 81be 63f2 513d 331f 33bd 3390 5e3e
00000020: 3707 48be 7341 24be d89a 263e 9655 953d
00000030: 4782 043e 7f67 1cbc 4def 96be 1819 8f3e
00000040: 6cc3 a33d 14a5 05bd 64f6 243e b87c a53d
00000050: 4a07 473e 2e3b dfbc b79f 8b3e d6fa 933e
00000060: a712 003c e1e2 373e 3175 6bbe 8fed 5b3e
00000070: cf51 30be 53a7 603e 21f0 833d 0e22 41bd
00000080: dbb6 27be a2a1 c13d a7b4 bf3b 6369 9d3e
00000090: 44db 01be 6fe7 f7bb 0915 bcbd 9feb eabd
000000a0: 14d6 26bd 0dfd 343e 29b3 973d 3449 e1bd
000000b0: 5f28 773e c87c 703e 07b8 b53d d8f5 ba3d
000000c0: 6975 b63d 5d69 8c3e 1388 643d 8680 0d3d
000000d0: 0905 e43d 9a31 90bd d697 42bc 95a8 9fbe
000000e0: 3323 94be 3b28 39be e765 b73d 9cb7 803e
000000f0: 246c 91be 19b3 74be b9e7 34be 6898 9d3e
00000100: c33c c2bd ad46 0c3e 31c9 11be 86b0 82bd
00000110: b0f5 d1bd 884c fc3d 46c5 713e 7686 033e
00000120: a03d 89be ee95 e4bd 1d25 4f3e 1467 79be
00000130: 068f 803e 396c 80be 0d06 a8bd 33ed 613e
00000140: d20e d4bc 669a 7bbe 69b3 b3bd 147d 093e
00000150: c95f ecbd cc4d 153e 7d71 40be 2964 943e
00000160: be45 353e 476e 7abd 09c7 99bc 189d 9abe
00000170: a5aa 29be cdae 5abe 7609 6f3e 8e9e 02bd
00000180: 7c6e 0b3d 1d44 02bd c1f3 843c 9935 24be
00000190: ddee bdbd c63d b3bd e4d1 c0b9 2248 65be
000001a0: 82c7 733d 4abc 8dbd 472f 843d 924e 74be
000001b0: 1e99 7abe 9818 223e 3933 9f3e 931a e03d
000001c0: 5a0e 603e 10cb 42bd 1e89 1e3e fd32 673e
000001d0: 21be 9fbe 70c1 6cbd fd9f 2a3e 75b9 87be
000001e0: 1c53 043d 7393 41be 7b3b 243e 8131 843e
000001f0: 211f 883e 586a a63d 1349 323d f892 b8bd
00000200: 71bd 63be cc4f 763e cc0f 5f3e df4a 033e
00000210: 9ab4 083e 302d fc3d 88b8 2ebe 2501 14bc
00000220: 3229 8dbe 0fea c93d 3731 84be aeee cf3d
00000230: d267 043b 98f9 943e 047a 06be a1c8 303e
00000240: b9ce a9bc b32a 173e e03a 743e 36b2 9b3e
00000250: 0c59 973e dd96 1e3e edb7 213e 328b 62be
00000260: 671d 93bd 0a04 833e 98fe 9dbe c8cc 4d3e
00000270: 6ae7 03be df8b 41be c889 38bd 1075 ce3d
00000280: 01e3 7dbe 2c20 d73d a7ca 533e 2f7a 113d
00000290: 136d 4dbe f4d8 8a3e 8ea6 913e 9da2 06be
000002a0: 24bd 473e 463c 1b3e 9759 6bbe 2940 4c3e
000002b0: fd1b 96be bf36 4e3d 45e9 4dbb bdf8 0dbe
000002c0: 2788 2a3d 2609 0dbd 82cf 52bd 4ce8 543e
000002d0: c94a f43b 0dc7 b53c c9a1 72be 0114 9bbd
000002e0: a3a2 b73d 796f 9b3d de9a 4f3e e3e9 51be
000002f0: cb68 88bc ecfe 943e 2b09 9f3e cbad 5cbe
00000300: 7bed 453e 9e7e f63a f2c2 433e ef09 89bd
00000310: cff3 643e 8169 f83d 206c 003e 51fe 963d
00000320: 85c8 e33d 25af 83bb d16b 943e b86d 1c3e
00000330: 1953 9f3d 59b3 15be 603f 213e 76a3 4b3e
00000340: 8b79 8f3e d30a b3bd 77b9 833e 7f89 643e
00000350: 403c 02be c24b 633e 8101 9fbe f81c 3a3e
00000360: 9cce 5dbd 8c27 07be f497 183e 900b be3c
00000370: 4b14 4a3e b78b 4e3e d99f 003c 1256 9bbe
00000380: 27ee 5abe 1367 77be 6c93 5b3e 9412 bebd
00000390: 798a 62be 370e 98be 4329 98be a61c 963d
000003a0: 6ce8 453e 88b4 4abe 9321 2abd db18 8f3e
000003b0: d711 1e3e f512 03be 41ab 12be 315f 22bc
000003c0: d119 a53d 5f84 39be 2e44 9b3e dfb4 a93d
000003d0: 9113 683e 41cc 09be 3fde 59be 3d80 49be
000003e0: 7cbd 1b3e 894a 973e 00e5 23be 4905 963e
000003f0: 7df9 803e 1a07 05be 67e5 7b3d a5fe 91bb

bias f4 [256]
0.05006392 0.19753239 -0.24859649 0.20579243 -0.31000733 0.014169241 -0.08913011 0.09845212
-0.07763176 0.08625302 -0.1535182 0.22405104 -0.10234844 0.047731664 -0.02638957 0.05780732
-0.17342845 0.14531532 0.315687 0.19288662 0.05490817 -0.22518599 0.04459382 0.24659564
0.26884502 -0.08915759 -0.24658874 -0.29179865 -0.31430146 0.0039311484 -0.030375078 -0.035807222
-0.033451293 -0.29777548 0.101835266 0.261895 0.003436711 0.290115 0.13731323 -0.26573005
-0.22292848 -0.21000944 0.010291737 -0.31436187 0.06933606 -0.3077142 -0.19273123 -0.22965285
0.27926373 0.17940022 -0.08805238 0.29123783 0.16035262 0.039745495 0.15269837 0.023053361
-0.046668977 -0.13364427 -0.027697215 0.014163587 0.0052206595 0.0210709 -0.31543624 -0.041819826
-0.26183993 0.18862486 0.20399472 -0.25722682 0.09355392 0.17042601 -0.30185056 -0.10313612
0.14230458 -0.24826898 0.10334719 0.023212934 0.11980356 -0.18382056 -0.24229452 0.18838507
0.18134291 0.19563779 0.0051453025 0.26655048 0.08617988 0.2511339 0.119457126 -0.1838552
0.029374555 0.06078058 0.10933314 -0.12535864 -0.17220369 -0.013935556 0.15629311 -0.276959
0.20729011 0.08317537 0.27315864 -0.07735992 0.039707042 -0.026391342 -0.26556507 0.12504989
0.0800457 0.3063095 -0.14376847 0.2547226 0.048317216 0.027254723 0.14529032 -0.1525308
0.22192083 0.11202864 -0.2163827 0.039435245 -0.13890067 0.20671469 -0.01289677 -0.22068956
-0.12201183 -0.012920557 -0.23289783 -0.3042893 -0.18320735 -0.25179017 0.26730272 -0.17994209
-0.18159887 0.024078276 0.11251083 -0.12925567 0.23805192 -0.1002628 -0.252458 0.11501747
-0.10127263 -0.19918372 -0.15548445 0.19341223 -0.08748138 0.24954785 0.056704108 0.12342499
-0.052304532 -0.3006609 0.1869356 0.1176884 -0.18794285 0.07687393 -0.2421979 -0.1578066
0.30639786 -0.040736858 -0.23627004 0.2744838 0.15949745 0.12424939 0.16280949 -0.2438529
-0.2721389 -0.07203959 0.19861837 0.18317738 -0.14370625 0.13816477 0.036907453 -0.24093536
-0.17450134 0.08381245 0.1215673 -0.17556591 -0.134185 -0.09220885 0.16953887 0.20211284
0.21048597 -0.21044491 0.035833985 0.049810104 0.21753442 0.1279726 0.06507 0.052230004
0.1316698 0.0020427029 0.27632087 0.22322075 -0.274305 -0.08085812 0.047966555 0.15943588
-0.29733557 0.14409818 0.06717069 0.018060807 0.18158554 -0.20054565 0.26735666 -0.01994865
-0.118566036 -0.015350712 0.12741159 -0.30159414 -0.17660199 0.316016 0.16026907 0.03085391
0.2463684 -0.052096933 -0.15016408 -0.16845858 0.03976498 -0.22508733 0.009071852 -0.20378931
-0.058224212 0.15539843 0.019563535 -0.12894353 0.099335216 -0.17563333 0.1949235 -0.11939217
-0.18197317 -0.01327804 0.16383305 -0.092100315 -0.061452042 -0.14643346 0.2074323 0.30666238
-0.29720408 0.15263873 -0.27865914 0.13622634 -0.26687467 -0.28945974 0.14440462 -0.0692144
-0.17757319 0.175797 0.06867699 0.085446745 0.13485564 -0.17481567 -0.13089754 -0.13084544
-0.095140636 0.30215028 -0.05118613 0.1418653 0.21884575 -0.31592846 0.19882639 0.29021847
00000000: d30f 4d3d ee45 4a3e 1490 7ebe 40bb 523e
00000010: 48b9 9ebe 1b26 683c d989 b6bd 44a1 c93d
00000020: 66fd 9ebd 6ca5 b03d e033 1dbe a36d 653e
00000030: 0f9c d1bd 4782 433d f12e d8bc 5ec7 6c3d
00000040: 3a97 31be 8acd 143e baa1 a13e 1284 453e
00000050: 64e7 603d 2897 66be 02a8 363d 9183 7c3e
00000060: 0ea6 893e 4198 b6bd c281 7cbe a266 95be
00000070: 1fec a0be ddd0 803b 28d5 f8bc 98aa 12bd
00000080: 3904 09bd 0776 98be 028f d03d 1a17 863e
00000090: 713a 613b f489 943e d79b 0c3e c50d 88be
000000a0: 5d47 64be b70c 57be ac9e 283c 0af4 a0be
000000b0: 1000 8e3d b78c 9dbe 565b 45be 1e2a 6bbe
000000c0: a8fb 8e3e b1b4 373e ce54 b4bd 201d 953e
000000d0: 7a33 243e 2ccc 223d f65c 1c3e 67da bc3c
000000e0: f827 3fbd 0bda 08be 45e5 e2bc 640e 683c
000000f0: 1112 ab3b e19c ac3c dc80 a1be 444b 2bbd
00000100: e20f 86be e026 413e fee3 503e 3cb3 83be
00000110: 3399 bf3d 2884 2e3e 288c 9abe 0839 d3bd
00000120: 4bb8 113e 393a 7ebe b1a7 d33d 0d29 be3c
00000130: 925b f53d 753b 3cbe 0e1c 78be 04e8 403e
00000140: f5b1 393e 4655 483e ed99 a83b 4e79 883e
00000150: 147f b03d 9f94 803e f0a5 f43d 8a44 3cbe
00000160: e8a2 f03c 0ff5 783d 0eea df3d 045e 00be
00000170: 2a56 30be f551 64bc 4d0b 203e 92cd 8dbe
00000180: dc43 543e d957 aa3d 73db 8b3e e16e 9ebd
00000190: daa3 223d a832 d8bc 25f8 87be 140d 003e
000001a0: 00ef a33d 99d4 9c3e 0b38 13be 006b 823e
000001b0: 46e8 453d 4c45 df3c fcc6 143e 0931 1cbe
000001c0: 373f 633e 466f e53d 6d93 5dbe da86 213d
000001d0: fa3b 0ebe 04ad 533e f94c 53bc 72fc 61be
000001e0: 57e1 f9bd beb0 53bc c57c 6ebe cfcb 9bbe
000001f0: b59a 3bbe a4ea 80be e7db 883e bd42 38be
00000200: 0ef5 39be ce3f c53c 146c e63d 995b 04be
00000210: e2c3 733e 9556 cdbd 2d42 81be 488e eb3d
00000220: 0668 cfbd d1f6 4bbe 5137 1fbe db0d 463e
00000230: 7029 b3bd 7989 7f3e 9142 683d 3ec6 fc3d
00000240: 473d 56bd 3af0 99be 0c6c 3f3e 9e06 f13d
00000250: 1774 40be 1470 9d3d ba02 78be 0e98 21be
00000260: 2ee0 9c3e b1db 26bd c6f0 71be 2489 8c3e
00000270: 4d53 233e 7776 fe3d 88b7 263e 93b4 79be
00000280: ca55 8bbe 7e89 93bd 9d62 4b3e da92 3b3e
00000290: bb27 13be 117b 0d3e 452c 173d c2b7 76be
000002a0: 7bb0 32be dda5 ab3d 47f8 f83d 8dc7 33be
000002b0: cb67 09be fed7 bcbd 999b 2d3e abf6 4e3e
000002c0: a289 573e df7e 57be a8c6 123d ae05 4c3d
000002d0: 58c1 5e3e 400b 033e 6c43 853d 21ef 553d
000002e0: 73d4 063e dede 053b ee79 8d3e fb93 643e
000002f0: b471 8cbe f198 a5bd 9478 443d 2943 233e
00000300: 5e3c 98be 798e 133e c990 893d 42f4 933c
00000310: 8ff1 393e d75b 4dbe f9e2 883e 5a6b a3bc
00000320: c0d2 f2bd 8e81 7bbc 2f78 023e 8c6a 9abe
00000330: 27d7 34be d9cc a13e 931d 243e 57c1 fc3c
00000340: ff47 7c3e 9863 55bd 9dc4 19be 6880 2cbe
00000350: 9be0 223d 4b7d 66be 1ba2 143c 25ae 50be
00000360: 837c 6ebd c420 1f3e b543 a03c c609 04be
00000370: 4370 cb3d 39d9 33be 079a 473e e283 f4bd
00000380: 2d57 3abe 238c 59bc dac3 273e 179f bcbd
00000390: 23b5 7bbd a7f2 15be 2269 543e da02 9d3e
000003a0: 222b 98be 544d 1c3e 69ac 8ebe eb7e 0b3e
000003b0: cca3 88be 1134 94be cede 133e 48c0 8dbd
000003c0: bfd5 35be 2104 343e 86a6 8c3d b4fe ae3d
000003d0: 9917 0a3e e102 33be 010a 06be 59fc 05be
000003e0: 18d9 c2bd 71b3 9a3e 8ca8 51bd 2345 113e
000003f0: 1a19 603e 60c1 a1be 2599 4b3e 8497 943e

weight f4 [256, 256]
-0.035230942 -0.029504322 0.007598385 -0.0024146363 0.0052568093 0.01947105 -0.029675655 -0.040610574
-0.042401902 -0.020183258 0.046849407 -0.03326609 -0.036058173 -0.013687059 -0.005589463 0.050776884
0.04922968 0.030708939 -0.049912952 -0.062246643 0.024572246 0.0001443252 0.018654168 0.039878026
-0.03450668 0.038122594 -0.00038063526 -0.037761904 -0.026296638 0.052724995 -0.033666424 -0.047734387
-0.05530397 0.044734433 0.05847454 -0.02290991 -0.018477663 0.01819501 0.0077352896 -0.031958602
0.0031634718 -0.005371578 0.012982294 -0.059787832 -0.023483507 0.06194804 -0.05381784 0.01139015
-0.020697325 0.025816351 0.05272472 0.042687118 0.022101521 -0.034126 0.04871641 -0.05872535
-0.012173161 -0.014974736 0.042912602 -0.022490442 0.002948247 0.017821595 0.00025136024 0.04808832
0.055867925 0.033945434 -0.026939802 -0.0496556 0.041379966 0.057907693 -0.01719056 -0.028456986
0.051218353 -0.014283143 -0.013812162 0.011306703 0.044598624 -0.037658386 -0.04907421 -0.028217852
0.031228095 -0.008082248 0.025422469 0.023744091 0.041231357 0.00530266 0.03249921 0.036277756
0.029787682 0.037211344 -0.029082172 0.04753851 -0.032155693 -0.037517525 0.02202107 0.00016249716
-0.02275262 0.014665149 0.0035865605 -0.0067213476 -0.021335587 -0.05522547 -0.002314575 -0.025242597
-0.023068376 -0.01807201 -0.029395387 -0.01681675 -0.021987602 0.012936644 0.031775042 -0.030858591
0.019485384 0.052514024 0.037556008 -0.051567577 0.029843502 -0.036042064 0.014942102 -0.011170149
-0.039563738 0.04436191 0.011630468 0.057530083 0.0031055734 0.028361514 -0.02231092 -0.012729481
-0.04306817 0.023323134 0.039330326 -0.053774744 -0.042496577 -0.029564112 -0.0390566 0.050465725
0.001042664 -0.0032688975 0.020404883 -0.032536253 -0.050926253 0.061073534 -0.046266414 -0.013469465
0.06103897 -0.054883532 0.012096725 0.042989306 -0.004392989 0.015947744 -0.012577534 -0.006029278
-0.040868312 -0.00041980296 0.0047622323 0.03012684 0.048688143 -0.035216115 -0.055175886 0.05476719
-0.028050065 -0.055319004 0.061413795 -0.013547309 0.057756253 0.04548437 0.039985843 0.006866455
0.036226697 0.008838676 0.03942763 -0.031544603 -0.007765621 0.060591273 0.018063486 -0.01340802
0.0034222528 0.027960159 -0.042587817 -0.013804726 -0.042100437 -0.00019150972 -0.006518744 0.0050664693
0.02280882 0.044977613 0.010373585 0.025165103 0.0019126087 -0.050937757 -0.05605585 -0.04115662
-0.012055874 -0.020981446 0.039150253 0.021948315 0.041109204 -0.06134469 0.04772935 0.049704686
0.017432638 -0.02317556 0.033162504 0.026890635 -0.0059844702 -0.047254853 -0.0023231506 -0.03397534
-0.04883845 0.046162643 0.058395647 -0.038236417 -0.049238168 0.055569008 0.020876095 0.04357569
-0.049847513 0.060127087 -0.044060737 -0.062143274 -0.05186046 -0.0075177476 -0.049755923 0.047078744
0.008430384 -0.005219534 -0.02807989 0.051320985 0.028532594 0.013360411 0.002060555 -0.03337962
0.01485116 0.02767995 0.0067278966 0.02847457 0.046456173 -0.02193261 0.035997435 -0.058081597
-0.007815808 0.0029916018 -0.061166532 0.050434187 -0.043633834 -0.018389568 -0.05836635 -0.0002424866
0.053101264 0.04894834 -0.013855115 -0.024651624 0.034117073 0.045830302 -0.0149385035 -0.035829656
00000000: 524e 10bd 0cb3 f1bc e0fb f83b e03e 1ebb
00000010: 5041 ac3b c081 9f3c 5c1a f3bc 4657 26bd
00000020: 9ead 2dbd 5c57 a5bc 2ae5 3f3d 0642 08bd
00000030: bcb1 13bd b03f 60bc d027 b7bb 6cfb 4f3d
00000040: 10a5 493d 5091 fb3c 8671 4cbd 56f6 7ebd
00000050: bc4b c93c 0056 1739 a0d0 983c 2457 233d
00000060: e056 0dbd 7026 1c3d 0090 c7b9 3aac 1abd
00000070: 0c6c d7bc 2af6 573d cee5 09bd 2285 43bd
00000080: 6a86 62bd 743b 373d 0083 6f3d 90ad bbbc
00000090: 785e 97bc b40d 953c 5078 fd3b 06e7 02bd
000000a0: 4052 4f3b 1004 b0bb b0b3 543c 16e4 74bd
000000b0: 7c60 c0bc 3abd 7d3d 1870 5cbd c09d 3a3c
000000c0: 708d a9bc d07c d33c e0f5 573d b0d8 2e3d
000000d0: 400e b53c b4c7 0bbd dc8a 473d fe89 70bd
000000e0: f071 47bc 9858 75bc 20c5 2f3d e03d b8bc
000000f0: 6037 413b 98fe 913c 00c9 8339 42f8 443d
00000100: c4d5 643d 5e0a 0b3d dcb0 dcbc ac63 4bbd
00000110: 0a7e 293d 9e30 6d3d 38d3 8cbc a01e e9bc
00000120: 56ca 513d d803 6abc 684c 62bc c03f 393c
00000130: 0cad 363d ae3f 1abd 0a02 49bd 2029 e7bc
00000140: 10d2 ff3c 686b 04bc c842 d03c f882 c23c
00000150: 36e2 283d f0c1 ad3b e41d 053d fc97 143d
00000160: 4c05 f43c ec6a 183d bc3d eebc beb7 423d
00000170: b0b5 03bd faab 19bd 8865 b43c 0064 2a39
00000180: b463 babc 1846 703c 800c 6b3b c03e dcbb
00000190: f8c7 aebc 1a34 62bd 20b0 17bb 90c9 cebc
000001a0: e4f9 bcbc c00b 94bc 98ce f0bc 48c3 89bc
000001b0: 581f b4bc 38f4 533c 8c26 023d 28cb fcbc
000001c0: d09f 9f3c f218 573d 54d4 193d 8638 53bd
000001d0: 5c7a f43c d8a0 13bd b8cf 743c 0003 37bc
000001e0: 960d 22bd d6b4 353d b88d 3e3c aaa4 6b3d
000001f0: e086 4b3b 6856 e83c 64c5 b6bc 508f 50bc
00000200: 4068 30bd 2810 bf3c d618 213d e842 5cbd
00000210: e410 2ebd 7030 f2bc d0f9 1fbd 26b5 4e3d
00000220: 00aa 883a 003b 56bb 2428 a73c bc44 05bd
00000230: 0c98 50bd 3e28 7a3d da81 3dbd 08af 5cbc
00000240: 0004 7a3d 8ecd 60bd 5831 463c 8e15 303d
00000250: 10f3 8fbb d8a4 823c 0012 4ebc 4091 c5bb
00000260: 8865 27bd 0019 dcb9 800c 9c3b 90cc f63c
00000270: 386d 473d c63e 10bd 1c00 62bd 9053 603d
00000280: 40c9 e5bc 2e96 62bd 088d 7b3d 88f5 5dbc
00000290: d291 6c3d d24d 3a3d 32c8 233d 0000 e13b
000002a0: 7262 143d 18d0 103c de7e 213d ea34 01bd
000002b0: c076 febb 8e2e 783d e0f9 933c 50ad 5bbc
000002c0: e047 603b b40c e53c 9070 2ebd 382d 62bc
000002d0: 8271 2cbd 00d0 48b9 309b d5bb a004 a63b
000002e0: 90d9 ba3c 723a 383d f8f5 293c 0c27 ce3c
000002f0: 80b0 fa3a 1ca4 50bd d29a 65bd d893 28bd
00000300: 0086 45bc 48e1 abbc 045c 203d f4cc b33c
00000310: 2062 283d 9244 7bbd da7f 433d 2497 4b3d
00000320: e4ce 8e3c acda bdbc 68d5 073d c049 dc3c
00000330: 6019 c4bb 4e8e 41bd 0040 18bb ba29 0bbd
00000340: d40a 48bd 0a15 3d3d 4630 6f3d ca9d 1cbd
00000350: f6ad 49bd 549c 633d 5804 ab3c 6c7c 323d
00000360: e82c 4cbd d247 763d 0879 34bd f289 7ebd
00000370: a26b 54bd 7057 f6bb decc 4bbd a4d5 403d
00000380: 981f 0a3c a008 abbb cc07 e6bc f435 523d
00000390: 30bd e93c a0e5 5a3c 600a 073b 12b9 08bd
000003a0: 4852 733c 10c1 e23c b075 dc3b 8043 e93c
000003b0: d448 3e3d 04ac b3bc 0c72 133d f8e6 6dbd
000003c0: e00d 00bc c00e 443b c289 7abd 1494 4e3d
000003d0: 64b9 32bd b8a5 96bc 8e11 6fbd 0044 7eb9
000003e0: b680 593d 0e7e 483d 9000 63bc 34f2 c9bc
000003f0: 58be 0b3d 8eb8 3b3d a0c0 74bc 1ec2 12bd

bias f4 [256]
-0.04578282 0.0062725693 0.013410918 -0.02012989 0.03403733 -0.029545106 -0.056256816 -0.06082023
-0.037993602 -0.027495123 -0.056489214 -0.041905627 0.008065924 -0.016786456 0.0577365 -0.044643126
0.006091684 -0.012836844 0.047054827 0.04311663 -0.05461233 0.0060781986 0.018531196 -0.012748823
-0.007550791 -0.010060698 -0.008616582 -0.0055428967 -0.045800723 -0.052044287 -0.034580007 0.0055263564
-0.012358524 -0.014676109 -0.017370336 0.050158262 -0.04643742 -0.008253984 0.016240269 -0.055810675
-0.029646397 0.0105384365 0.010556988 0.0065669194 0.057170525 0.015157089 -0.037566 -0.03942503
0.05292926 0.057497643 -0.03724329 0.04481419 -0.02915547 0.021852694 -0.05235745 -0.025470346
0.0021797046 -0.023188896 0.056521498 0.02145303 0.045326322 -0.01708123 0.049241103 0.015953608
0.047556363 -0.047355913 -0.019053295 -0.025776818 0.0017265454 -0.015857466 -0.029696137 -0.03359262
0.01753483 -0.04352106 0.034744225 -0.035211407 -0.014319621 0.014602609 0.050803393 -0.0016231835
-0.015435226 0.05411247 -0.029816806 -0.033723913 0.054432318 0.042672597 0.054225072 -0.045056373
0.04068023 0.03135372 0.031474903 0.00211744 -0.021654144 -0.05064267 -0.051565982 0.005799845
0.056694977 0.057257034 0.017224096 -0.009973735 0.021465085 0.0620592 0.05440966 -0.009807758
0.021095835 -0.034909688 0.0114476755 0.03901703 -0.021444067 0.03626059 -0.043333724 -0.042940244
-0.055510603 -0.021972857 -0.009616412 0.013613991 0.03147845 -0.033098422 -0.037939936 0.033237763
0.007725723 -0.043683477 0.035836205 0.019870535 -0.014459714 0.0057940483 0.059328593 -0.055608526
-0.058947794 -0.040090285 -0.0066107363 0.055460937 0.047553286 -0.01561144 -0.007097356 -0.032408185
-0.05069267 -0.017965347 0.018000387 0.012844048 0.021968998 -0.022011288 -0.052375905 -0.030110449
-0.012871489 -0.0077233016 -0.024335861 -0.005001016 -0.05448755 -0.0382756 0.046483718 -0.023644485
0.058748014 -0.0394271 -0.02708304 0.01937928 -0.059364825 -0.033881515 -0.0506375 -0.0037123933
0.011169739 0.054412946 0.017142862 0.059103094 0.036453836 0.0081529245 -0.007238373 0.02852536
0.049435772 0.009206131 -0.025049694 0.002871208 0.0070841983 -0.028987281 0.02674193 0.00072461367
-0.04489945 -0.026051067 0.04226657 0.034030765 0.044103116 0.0061072484 -0.0075297654 -0.0498664
0.023829237 0.050446317 -0.022236645 -0.014384016 -0.012715012 0.022787541 -0.019625016 0.04808729
-0.060304366 0.04239817 -0.059199236 0.04848648 -0.062105514 -0.0073555782 -0.05857137 -0.00064629316
0.02843704 -0.045548223 0.061692245 -0.033752166 -0.031670667 -0.03633044 -0.043363027 0.0049336404
0.028051846 -0.04212173 0.051244363 -0.02504196 -0.020261675 -0.028446198 -0.007675819 0.05006364
-0.016916394 0.049534425 -0.04532034 -0.036248118 -0.04575085 0.03079968 0.061737254 0.047689177
-0.0596689 -0.0063064024 -0.054123648 0.0069018453 0.033272997 0.04966238 -0.04932148 -0.041571364
0.051446766 -0.039969884 0.042465143 0.04715214 -0.05716385 -0.04034277 -0.0353278 -0.00550545
-0.03593692 -0.0288833 -0.00347884 0.045905724 0.023717374 -0.05153168 -0.042739823 0.00013574213
-0.038817137 0.05701422 -0.019959494 -0.054525398 0.040756732 -0.03577958 -0.021882646 0.019118242
00000000: c486 3bbd 208a cd3b 78b9 5b3c 70e7 a4bc
00000010: ba6a 0b3d 9408 f2bc 8c6d 66bd a21e 79bd
00000020: 2e9f 1bbd 743d e1bc 3c61 67bd 3ca5 2bbd
00000030: f026 043c c083 89bc 1c7d 6c3d b6db 36bd
00000040: c09c c73b a051 52bc 90bc 403d 109b 303d
00000050: 2eb1 5fbd a02b c73b bcce 973c 70e0 50bc
00000060: a06c f7bb a0d5 24bc 902c 0dbc 30a1 b5bb
00000070: 8a99 3bbd 642c 55bd c4a3 0dbd 7016 b53b
00000080: 687b 4abc 1074 70bc 3c4c 8ebc c072 4d3d
00000090: 2a35 3ebd b83b 07bc 500a 853c bc99 64bd
000000a0: 00dd f2bc 68a9 2c3c 38f7 2c3c 502f d73b
000000b0: a42b 6a3d 7055 783c cede 19bd 247c 21bd
000000c0: 5acc 583d a682 6b3d 6c8c 18bd 168f 373d
000000d0: 74d7 eebc 6c04 b33c c474 56bd 30a7 d0bc
000000e0: 60d9 0e3b a4f6 bdbc 1683 673d 44be af3c
000000f0: 18a8 393d f0ed 8bbc 0ab1 493d 24b1 823c
00000100: 76ca 423d 46f8 41bd a815 9cbc e829 d3bc
00000110: 404d e23a 84e7 81bc 5045 f3bc 6a98 09bd
00000120: 34a5 8f3c 2443 32bd f64f 0e3d d639 10bd
00000130: d89c 6abc c83f 6f3c 3817 503d 00c1 d4ba
00000140: 08e4 7cbc 0aa5 5d3d 6042 f4bc 1622 0abd
00000150: 6cf4 5e3d 76c9 2e3d 1c1b 5e3d 088d 38bd
00000160: 50a0 263d c26c 003d d4eb 003d c0c4 0a3b
00000170: 0864 b1bc b06e 4fbd da36 53bd a00c be3b
00000180: fe38 683d 5a86 6a3d 8c19 8d3c e068 23bc
00000190: 8cd7 af3c ca31 7e3d aadc 5e3d b8b0 20bc
000001a0: 2cd1 ac3c 76fd 0ebd 088f 3b3c 52d0 1f3d
000001b0: 78ab afbc fc85 143d b47e 31bd 1ce2 2fbd
000001c0: 165f 63bd 6c00 b4bc 288e 1dbc 380d 5f3c
000001d0: 8cef 003d 3692 07bd e866 1bbd 5224 083d
000001e0: 1028 fd3b 72ed 32bd fcc8 123d 88c7 a23c
000001f0: 70e8 6cbc 00dc bd3b 8a02 733d c4c5 63bd
00000200: 3e73 71bd b635 24bd e09e d8bb 022b 633d
00000210: 3cc7 423d 20c7 7fbc f090 e8bb 72be 04bd
00000220: 1ea3 4fbd 102c 93bc 8c75 933c d86f 523c
00000230: 54f8 b33c 0451 b4bc 1e88 56bd 30aa f6bc
00000240: f0e2 52bc c013 fdbb 005c c7bc 90df a3bb
00000250: 562e 5fbd e0c6 1cbd b665 3e3d 14b2 c1bc
00000260: c2a1 703d 507e 21bd 40dd ddbc 4cc1 9e3c
00000270: 8828 73bd 58c7 0abd 4469 4fbd a04b 73bb
00000280: 4801 373c 1ce0 5e3d 306f 8c3c 1616 723d
00000290: 9e50 153d d893 053c e02f edbb 04ae e93c
000002a0: 2a7d 4a3d 50d5 163c 0435 cdbc e02a 3c3b
000002b0: 9022 e83b bc76 edbc e411 db3c 00f4 3d3a
000002c0: 7ce8 37bd 0c69 d5bc b61f 2d3d d863 0b3d
000002d0: 78a5 343d 501f c83b 40bc f6bb b640 4cbd
000002e0: 8835 c33c cca0 4e3d a029 b6bc f0aa 6bbc
000002f0: a052 50bc f0ac ba3c a4c4 a0bc 2ef7 443d
00000300: b601 77bd b4a9 2d3d e67a 72bd c299 463d
00000310: 5a62 7ebd 1007 f1bb 88e8 6fbd 006c 29ba
00000320: ccf4 e83c c690 3abd 02b1 7c3d b63f 0abd
00000330: 1ab9 01bd 3acf 14bd 6e9d 31bd 60aa a13b
00000340: fccc e53c d687 2cbd 9ce5 513d cc24 cdbc
00000350: d0fb a5bc 0008 e9bc 7085 fbbb 880f 4d3d
00000360: 4094 8abc 9ce4 4a3d d2a1 39bd e878 14bd
00000370: 3e65 3bbd 9c4f fc3c 34e0 7c3d ba55 433d
00000380: 6067 74bd f0a5 cebb c2b0 5dbd e028 e23b
00000390: 4449 083d c86a 4b3d 5205 4abd bc46 2abd
000003a0: d8b9 523d 76b7 23bd eeef 2d3d 9a22 413d
000003b0: a424 6abd 763e 25bd e2b3 10bd 1067 b4bb
000003c0: 9832 13bd ac9c ecbc 40fd 63bb a407 3c3d
000003d0: f04a c23c e212 53bd f40f 2fbd 0056 0e39
000003e0: b8fe 1ebd be87 693d 1882 a3bc 0656 5fbd
000003f0: 88f0 263d 9c8d 12bd 3c43 b3bc dc9d 9c3c

weight f4 [7, 256]
0.01022017 -0.0022604838 -0.03787525 -0.022408769 -0.021285273 0.013695143 -0.011126794 0.061200745
-0.0437309 -0.0051039606 0.03174839 0.013397604 0.017818376 -0.060474716 -0.04962775 0.043765053
0.00073364377 0.009423152 -0.05369591 -0.029570974 -0.06158697 -0.02329398 -0.019895665 0.027498491
0.038170405 0.056079283 0.021391101 -0.043872774 -0.033491008 -0.005464278 -0.03648699 0.01724013
0.011880219 -0.007600315 -0.02739773 0.029196113 0.009379387 -0.021732785 -0.03738466 0.042347744
-0.03503357 -0.0025621504 0.045250922 -0.044000663 0.0353788 0.011599071 0.021523386 0.0063400865
0.05408919 -0.051227488 -0.008067355 -0.03229171 -0.016133897 -0.056013405 0.04477469 -0.0030591413
0.049775995 -0.03672973 0.0010373071 -0.037589997 -0.04340358 -0.018522032 -0.059647955 -0.006896831
0.009280086 0.0050247386 -0.042423017 -0.053066067 -0.0349138 0.03477621 -0.043726772 -0.0014413074
-0.030007772 0.040283754 0.033614926 0.023871645 0.051758133 0.013272084 0.000115685165 -0.018810347
-0.0524351 0.053635716 -0.04755816 0.044929937 -0.051126286 -0.02629044 0.0022112057 0.029077075
-0.015604101 -0.024786226 0.016037323 0.055047743 -0.03586997 -0.05649332 0.048333667 -0.036900215
0.03456609 -0.025558084 0.0068709776 -0.015232958 0.008381352 0.02766341 0.005476892 -0.0017100871
-0.016108848 0.008382417 -0.049656913 0.03788533 0.0193585 -0.062293977 0.0017501786 0.012309
-0.043526247 0.034622416 0.03126744 -0.014726527 -0.048821658 -0.025241375 0.043480106 -0.026579835
0.0030617043 0.0140417665 0.035677828 -0.0620479 -0.033824638 0.018856987 -0.058225185 -0.027545743
0.011491954 -0.030800082 -0.0094604045 0.006081946 0.023759522 -0.004412204 -0.0010946244 0.012095183
0.013974406 -0.047438674 0.03305363 -0.018903598 -0.053998835 -0.04940077 -0.047155112 -0.044662103
-0.04433337 0.0030496195 0.018365167 -0.061105743 0.022519499 -0.015260898 0.05781859 -0.06147717
0.058077276 0.03329306 -0.028676055 -0.048707783 0.047811493 0.006579533 -0.054389767 0.021547124
-0.056855142 0.058046333 0.0007114783 0.050141267 -0.026808552 0.013887204 0.005328387 -0.022735015
-0.043418705 -0.016406484 -0.047388844 -0.03856773 -0.055027045 -0.012537502 -0.021572217 -0.042374305
0.004180871 0.0597869 0.023376018 0.023444332 -0.021266684 -0.0032382458 -0.006502345 0.016773239
-0.032920495 0.046514355 0.04679306 -0.035771675 -0.053766973 0.027793579 -0.055620193 0.0024116486
0.024160214 -0.0060993955 -0.037800275 -0.057274364 -0.0055192336 -0.02589047 -0.024223246 -0.023577273
-0.007235661 -0.060977273 0.005075112 0.024345167 0.050317295 -0.03587731 0.008581415 0.031526856
-0.024142392 -0.044090107 -0.00926929 0.017852038 -0.020696446 -0.043894485 0.020751417 0.0018563643
-0.0007388815 0.06016837 0.03155511 -0.032614253 0.05897472 -0.02607409 0.05401735 0.031564064
0.012283355 0.05397106 -0.015099049 -0.0054348707 0.049510814 -0.014972113 0.025381505 -0.019502081
0.014012054 0.047679424 -0.046616815 0.055683658 -0.01007662 0.047201432 0.02624318 -0.006161116
-0.03307332 -0.049005955 0.048104353 0.052410424 -0.020177484 -0.043023795 0.044812582 0.02924759
-0.040047757 0.0012948662 -0.046117894 -0.0382372 -0.059902333 -0.028308265 0.021308318 0.038645275
00000000: 8072 273c a024 14bb 1423 1bbd 9892 b7bc
00000010: 745e aebc 9861 603c 284d 36bc a2ad 7a3d
00000020: 2c1f 33bd 203f a7bb 9a0a 023d a081 5b3c
00000030: d8f7 913c 56b4 77bd 7846 4bbd fc42 333d
00000040: 0052 403a 9063 1a3c 3ef0 5bbd d43e f2bc
00000050: 9e42 7cbd 04d3 bebc 3cfc a2bc 8444 e13c
00000060: 9258 1c3d 64b3 653d 643c af3c f0b3 33bd
00000070: de2d 09bd b00d b3bb 6273 15bd 2c3b 8d3c
00000080: 40a5 423c 100c f9bb 3471 e0bc b02c ef3c
00000090: 00ac 193c f408 b2bc a820 19bd d474 2d3d
000000a0: 5c7f 0fbd c0e9 27bb 0859 393d 0a3a 34bd
000000b0: 5ce9 103d 080a 3e3c d051 b03c 80c0 cf3b
000000c0: a08c 5d3d ead3 51bd f02c 04bc 5044 04bd
000000d0: 3c2b 84bc 506e 65bd aa65 373d e07b 48bb
000000e0: eae1 4b3d ea71 16bd 40f6 873a f8f7 19bd
000000f0: f4c7 31bd 84bb 97bc 6a51 74bd d0fe e1bb
00000100: 800b 183c 90a6 a43b c2c3 2dbd ce5b 59bd
00000110: c601 0fbd 8071 0e3d d81a 33bd 40ea bcba
00000120: dcd2 f5bc 9400 253d ceaf 093d 788e c33c
00000130: 5600 543d 2873 593c 009c f238 2818 9abc
00000140: 30c6 56bd 20b1 5b3d 58cc 42bd 7408 383d
00000150: cc69 51bd 0c5f d7bc e0e9 103b 0c33 ee3c
00000160: 58a8 7fbc 7c0c cbbc b460 833c be79 613d
00000170: 64ec 12bd 8a65 67bd 86f9 453d ae24 17bd
00000180: 2c95 0d3d 305f d1bc f025 e13b a893 79bc
00000190: f051 093c 609e e23c 8077 b33b 0025 e0ba
000001a0: b4f6 83bc 6856 093c 0c65 4bbd a62d 1b3d
000001b0: b895 9e3c f827 7fbd 4066 e53a b0ab 493c
000001c0: 9448 32bd 3cd0 0d3d 4a12 003d 8847 71bc
000001d0: 38f9 47bd 00c7 cebc 3218 323d f4bd d9bc
000001e0: e0a6 483b 700f 663c ea22 123d f025 7ebd
000001f0: b48b 0abd f879 9a3c 887d 6ebd 9ca7 e1bc
00000200: c048 3c3c 7450 fcbc d0ff 1abc 104b c73b
00000210: 54a3 c23c 4094 90bb 8079 8fba e02a 463c
00000220: e8f4 643c 0e4f 42bd 3e63 073d b8db 9abc
00000230: e22d 5dbd 7658 4abd b825 41bd 9cef 36bd
00000240: e896 35bd 20dc 473b 8c72 963c 044a 7abd
00000250: d07a b83c d808 7abc 30d3 6c3d 7ccf 7bbd
00000260: 70e2 6d3d 4e5e 083d 0cea eabc d081 47bd
00000270: fcd5 433d 2099 d73b cec7 5ebd 9883 b03c
00000280: f0e0 68bd fec1 6d3d 8082 3a3a ee60 4d3d
00000290: 9c9d dbbc 2887 633c c099 ae3b c83e babc
000002a0: d0d7 31bd e466 86bc ce1a 42bd 32f9 1dbd
000002b0: 0a64 61bd 186a 4dbc 38b8 b0bc ae90 2dbd
000002c0: b0ff 883b 1ce3 743d 107f bf3c 540e c03c
000002d0: 7837 aebc c038 54bb a011 d5bb 0868 893c
000002e0: a4d7 06bd d685 3e3d 14aa 3f3d 5285 12bd
000002f0: c23a 5cbd 5caf e33c 00d2 63bd c00c 1e3b
00000300: a4eb c53c 70dd c7bb 76d4 1abd 8698 6abd
00000310: b0da b4bb 4018 d4bc d46f c6bc 2025 c1bc
00000320: 2019 edbb 4ec3 79bd 204d a63b 846f c73c
00000330: 8219 4e3d 16f4 12bd 1099 0c3c 4e22 013d
00000340: 44c6 c5bc d497 34bd 38de 17bc 703e 923c
00000350: 988b a9bc b4ca 33bd e0fe a93c 4051 f33a
00000360: 80b1 41ba 1c73 763d ee3f 013d 8696 05bd
00000370: 7a8f 713d 5499 d5bc 4c41 5d3d 5249 013d
00000380: 2040 493c c210 5d3d 0062 77bc 0017 b2bb
00000390: dacb 4a3d 984d 75bc e0ec cf3c d4c2 9fbc
000003a0: d092 653c 804b 433d 46f1 3ebd 8c14 643d
000003b0: 6818 25bc 4a56 413d f0fb d63c 30e3 c9bb
000003c0: e477 07bd 78ba 48bd 1209 453d 50ac 563d
000003d0: 404b a5bc b839 30bd 668d 373d a498 ef3c
000003e0: 1e09 24bd 80b8 a93a 1ee6 3cbd 9c9e 1cbd
000003f0: 265c 75bd bce6 e7bc c88e ae3c 824a 1e3d

bias f4 [7]
0.060908318 0.029779486 -0.012741134 -0.02208174 -0.02074349 -0.05644355 -0.04459148
00000000: 007b 793d 1cf4 f33c 30c0 50bc c4e4 b4bc
00000010: 40ee a9bc 5a31 67bd 8ea5 36bd
