rl_training/runs/ddpg/hover/20250923_194305/policy_actor_scripted.pt (torch, 291723 bytes, 6 tensors)

weight f4 [256, 10]
00000000: cf45 6f3e 4fb5 9bbd 7a31 8bbd 8cfd 863e
00000010: ac5b 44be 39bf be3d e58f 653e f910 23be
00000020: ef2b 4a3e 3d0e 54be 5fe0 953e b0a4 403e
00000030: e9de 823d 8230 c53e b77b 44be 5185 3ebe
00000040: d505 ff3d 0bc9 6b3e d448 223e 1ffb d1be
00000050: 021e 12bb 9ff9 e33e b34c fabd b0ff 74bd
00000060: 59d3 9abd 2e7c 843d 17dd a13d ec9f 483e
00000070: c511 7f3c 5a39 6d3e 4847 1ebe 76a4 873e
00000080: 95fa 97be c701 cf3d 9b24 8b3e e0d0 923e
00000090: 2879 51be 0bd4 35be e8d3 103e 8815 8c3e
000000a0: 880b 773e 1c76 9a3e 40d3 84be 68cc bd3e
000000b0: 0d45 1bbe 97f8 473e 2053 17be c13c cc3c
000000c0: 15fe cfbd 17a6 04be 8523 3a3e 959e 903e
000000d0: 9c51 ef3d 4aac 7fbe 6bbd 7bbd f691 93be
000000e0: 7c91 57be eaf9 afbe 9f5a 8ebe fd0b 4c3e
000000f0: 551f 86be c6fa 41be 2901 293e 6d69 f33d
00000100: 6e47 92be 2fea 3dbe 3a67 aabe 2c87 a73e
00000110: 1d33 93be 1b5d 43be 3410 4ebc 1ae9 7fbd
00000120: d2d6 0fbe cb2c 123e ef3c 703d d8fd 6bbe
00000130: 2c69 8cbe 38b8 a23e a7f6 23bd a224 413c
00000140: d572 bdbd bc44 15be 16a9 6c3e 1d20 e2bc
00000150: a590 883e 9c5b f6bb 971f a8bd 1125 86be
00000160: bda1 743d d54f f23d d2f6 73be ea91 46be
00000170: d9b8 9dbe f490 863e 09dd 31bd d6fc 1dbe
00000180: 2d83 02be c4bf b43e 13ff 3b3c fe71 92be
00000190: 5e48 6e3d dedf 833d 4d34 163e 1567 cb3d
000001a0: 7e28 8f3d 7ad5 603e ce4e 02be e9a8 3d3e
000001b0: fd9a e63d 0962 2d3e 73a3 ce3e d76e 903e
000001c0: 6daa c93e 6b88 65be e975 bd3c b4c4 d53d
000001d0: cca9 ca3d e078 783e 4803 433d dc1f c33e
000001e0: 0bc7 573e 36fe 95bd 4296 44be ab2e aabd
000001f0: 2195 59be bc35 03be ad32 60be 7625 1fbe
00000200: 441d 74be 8d13 213d 0ab2 0fbe 0484 94be
00000210: 27ea 883d 8307 b4bd 304d 7dbe d89c 933d
00000220: 3d80 8dbe 530f a53e 5c8b 6d3e f41f 46be
00000230: ad92 b2bd 7365 a53e 3bd6 3d3d b887 2cbe
00000240: 53d4 7fbd f8fc 9c3e 156b 003d bdf0 8cbe
00000250: 1c1c b0bd 7e84 9b3e 9fc5 183c fbc9 e73d
00000260: 747b 31be 300f b8be b9fe 263d ad64 c2be
00000270: fff8 bfbe 9ee0 35bd 1bbb 93bd 1a49 4fbc
00000280: d4ee 783e 41b4 18bd bb3d 6d3e eea5 70be
00000290: 7c16 013e c1fe e63c 588c 6b3e 0033 243d
000002a0: 3256 303e 601b 6abe 4b86 16be 8d68 973d
000002b0: 3388 143e 7feb 9e3d d949 303e 3015 f13d
000002c0: 427a b33c 0305 133d 4622 813d 079e 803e
000002d0: 106d 4cbe 233b 96be 9352 733e ae79 8cbe
000002e0: f74c 843e 7f7f 8ebe 3d4a 78bd 39ea bb3d
000002f0: dd7b 9e3e 2bb6 56bd b302 95bc bf98 063e
00000300: f275 f6bd e50a 83bd 7bde 753e b6ff 293e
00000310: e093 9fbe ceb8 9dbe 81b7 8fbe 5ebf 7b3e
00000320: a92e 793e b6c3 093d 6189 6ebe 7b2e dbbd
00000330: 519d 9bbd f1c1 34be f1cc 7f3e 89d8 143e
00000340: 423f d8bd b991 97be e2b6 24be 9e74 a23e
00000350: c146 233a 8a3e 83be a8a2 d73e fdf2 8cbc
00000360: a196 2ebc 57ca b8be 5527 c1be a756 0bbe
00000370: 29ed 36be aff2 a13e 7342 04be ae10 bd3e
00000380: c2e8 0bbe 22e1 9e3e 81fe 53be c30a 9cbd
00000390: f8ca ab3e f64b 24bc c7e1 173d 8a0c 423e
000003a0: 24c8 473e d4c9 b83e c3c0 853e 9f1e a53e
000003b0: 8d9c 903e 0fb6 2fbd 676f 0cbe 6e9a 7b3e
000003c0: a43c 7dbd b8e6 143e 010d 2c3e e8ad 463e
000003d0: b500 183e 3f3e 873e 3a4e 07be 80b9 543e
000003e0: 614a 9fbd 7b58 40be 3750 91be 47b9 383e
000003f0: dd0b 2cbe bd54 9abe 71e5 abbe 9cb8 4bbe
0.23366474 -0.07602941 -0.06796546 0.26365316 -0.19175595 0.093138166 0.22418173 -0.15924443
0.19743322 -0.20708556 0.29272744 0.18812823 0.06390173 0.3851357 -0.19187818 -0.18605544
0.12452284 0.2302591 0.15848094 -0.41011903 -0.0022295718 0.44526383 -0.122216605 -0.059814155
-0.075598426 0.06468998 0.07903498 0.19592255 0.015568201 0.23166409 -0.15456879 0.2649266
-0.29683366 0.10107761 0.27176365 0.28674984 -0.20456374 -0.17756669 0.14143336 0.27360177
0.24125493 0.30168235 -0.2594242 0.37070012 -0.1516306 0.19528423 -0.14777803 0.024931313
-0.10155884 -0.12953983 0.18177612 0.28245988 0.11685488 -0.24968067 -0.06145994 -0.28822297
-0.21051592 -0.34370357 -0.27803513 0.19926448 -0.2619578 -0.18943319 0.16504349 0.11885343
-0.28570122 -0.18546365 -0.3328188 0.32720315 -0.28749934 -0.19078486 -0.012577105 -0.062478162
-0.14046791 0.142749 0.05865186 -0.23046052 -0.2742399 0.31781173 -0.040030148 0.011788519
-0.09250418 -0.14577001 0.23111376 -0.027603203 0.26672855 -0.007518245 -0.0820915 -0.26200154
0.05972456 0.11831633 -0.23824623 -0.193916 -0.3080509 0.26282465 -0.043423686 -0.1542848
-0.12745352 0.35302556 0.011474389 -0.28602594 0.058174483 0.06439184 0.14668389 0.09931771
0.06990145 0.21956435 -0.12725374 0.18521465 0.112600304 0.16931929 0.40359077 0.28209564
0.39387837 -0.2241532 0.023127513 0.10437909 0.098956674 0.2426486 0.04761055 0.38110244
0.21072023 -0.073238775 -0.19197944 -0.083096825 -0.21248294 -0.12813467 -0.21894331 -0.15541634
-0.23839289 0.039325286 -0.1403276 -0.2900697 0.06685286 -0.08790495 -0.24736476 0.0720765
-0.276369 0.32238254 0.23197693 -0.19348127 -0.087193824 0.32303962 0.046346884 -0.16848648
-0.062458348 0.3066175 0.03135212 -0.2752742 -0.085991114 0.3037452 0.00932446 0.113178216
-0.1733225 -0.35949087 0.040770266 -0.37967435 -0.37494656 -0.044403665 -0.07213422 -0.012651706
0.24309856 -0.03728128 0.2316808 -0.23500797 0.12606233 0.028197648 0.23002756 0.0400877
0.17220381 -0.22862005 -0.14699666 0.07392988 0.14505081 0.07759761 0.1721567 0.11771619
0.021908883 0.03589345 0.06305365 0.25120565 -0.19963479 -0.29341993 0.23761968 -0.27436584
0.2583997 -0.27831647 -0.060617674 0.09175534 0.30953875 -0.052419823 -0.018189764 0.13144206
-0.12034215 -0.06398562 0.24010651 0.16601452 -0.31167507 -0.30805057 -0.2806969 0.2458472
0.24334206 0.03363391 -0.23294593 -0.10702225 -0.07598365 -0.17652108 0.24980523 0.14535727
-0.105589405 -0.29603365 -0.1608539 0.31729597 0.00062284997 -0.2563365 0.42116284 -0.01720571
-0.01065603 -0.36091873 -0.3772532 -0.13607274 -0.17863907 0.31630465 -0.12915973 0.36926788
-0.13663009 0.31031138 -0.20702554 -0.0761924 0.3355329 -0.010027876 0.037080552 0.18950096
0.19509941 0.36091483 0.26123628 0.32249925 0.2824444 -0.042898234 -0.13714372 0.24570629
-0.06182541 0.14541137 0.16801836 0.19402277 0.1484402 0.26414678 -0.13213435 0.20773888
-0.077778585 -0.18783753 -0.28381512 0.18039428 -0.168014 -0.30142775 -0.33573487 -0.19894642

bias f4 [256]
00000000: 3fb1 86be 1ec7 113e a3a1 973e e88e 683e
00000010: 069d e8bd 58df 683e 4a58 81bd 06c3 58be
00000020: f433 0bbe fdc0 93be 4fa0 983d 6523 003e
00000030: c462 0f3e 72b8 cc3c 1db0 2c3e 7ef8 3e3d
00000040: 7de6 98be 0941 7dbd 897a 4a3c 06a4 c2be
00000050: b2d6 2f3e 33c4 93bd b539 a53e 4570 51be
00000060: 1f90 f03c 0d57 2e3e 78e2 653e 33fc 823e
00000070: dcc4 a9bb 1985 8a3d 9ba1 66be 3561 573e
00000080: 4b8c 87be a5dd 40bc f58d a53e 8ee0 aa3d
00000090: 9318 513c 3445 573e 147f 95be 9ba0 843d
000000a0: 99e3 2d3b 47bc fbbd c619 65be 68c4 833e
000000b0: e696 833e 7ac8 3cbe 639b 853d 327e 523e
000000c0: df23 3e3d 8c45 933e eb70 993e 6854 17be
000000d0: 4258 fd3d a141 983e a232 473e 44e7 f03c
000000e0: b15a 423e 0f02 af3c efa1 a03e e34c 943d
000000f0: 3679 293d a8b1 0abe f5e3 4dbe 1e31 873d
00000100: 72aa 0e3c b4b8 e53c b659 6a3e 2734 2b3e
00000110: 6c27 393d aba2 77bc 7438 d53d 9d9b 833d
00000120: aac0 d0be fbb0 14be a3a5 8dbe 7dd9 143e
00000130: 656f 453e d712 2c3e 7616 b9be 7c2e 6ebe
00000140: 47c5 9a3e 7826 993d 3194 19be 3762 3cbe
00000150: 54a3 9dbd 92bc a93d 9198 98be 3447 e6bc
00000160: daf0 d13d ae33 91bc 8e76 a73e 9869 14bd
00000170: 32a8 a73e cc78 14be fda9 6abd 66d4 0ebe
00000180: 8ff3 0ebe ac7d e23c 4049 0e3d 5dc7 02bc
00000190: a682 efbd 6285 6b3d 0743 d23d 7bc7 723e
000001a0: 5fd9 6dbe 90a8 09bd 2557 af3d d29c 3cbe
000001b0: 3c60 5abe 15a2 623e e271 5fbd 0414 0c3e
000001c0: fdaa 9b3e 463d eabd 4930 fcbc 88fd da3d
000001d0: 1eea 70be 9a0b 043d 6b6e fbbd 8633 79bc
000001e0: 2a93 a8bd 7a73 7a3e 218d 433e f706 66be
000001f0: a149 cb3d 692b 643c 6819 a3be 3e7a 10bb
00000200: c5b2 833d b072 cf3e 60dc 843e 063c dabc
00000210: 1eed 243d 2c0b 193d 0d73 603e 5a08 483e
00000220: eaf9 7b3e 4783 c03d b007 373e 39cc 453e
00000230: f790 71bc 87c4 293e 8472 0abe 11f5 b33d
00000240: 81ce e0bd f117 39be a9c8 debd cd2c f43c
00000250: 8274 a73e 23c9 a03d 595d 843c b7b5 1c3e
00000260: 30b0 343e 9e7d 6d3e 8aac 863e b238 22be
00000270: 3cad 9e3e 6875 903e efe0 9b3e 01be 4cbe
00000280: d199 b8be 3a2d 36be 75b1 ac3e 260f 763e
00000290: 30cc 833e a8ec 1d3e 05b6 cd3d 210d 043e
000002a0: 1fed af3e 7fba 2abe 194e 89be ca3d b53c
000002b0: 7772 6cbe 92a0 aabe 7302 c83d 3483 15be
000002c0: e002 d13d 694f 603e a02b 91be f029 6dbd
000002d0: df2d 883e 1925 ef3d 22bb afbe af17 983e
000002e0: 5065 ae3c 6057 9d3d 9c02 353e f830 4fbe
000002f0: 8561 703e dffd 043e cb06 52be 8202 c93c
00000300: 0ab5 3e3e 6d85 3d3e 60c4 503c 2656 1dbe
00000310: 2982 8abe d00a 013e 7e81 3a3e a6f4 853c
00000320: 2efc 493e e260 cdbc d67f a03e 746c aa3e
00000330: 3c03 34be 78d8 ffbd b733 9ebc 01f7 a03e
00000340: 64c7 383e b1e0 37be ee06 88be 8eed 263e
00000350: 54cb a93e 8470 b3be b28a f0bd 42fc e93d
00000360: 53ab 9abe 8f94 ec3d a4cf 64be 130e 6e3e
00000370: 8775 123e 135e 8fbe 4d22 46be b7fd bc3d
00000380: f992 613d a8c4 1e3d 3a99 37be 3a32 94bd
00000390: 212d 2a3e 5108 14be bb9d 71be 31cb 8cbe
000003a0: 769a f13d 65bc 783e f494 413e 3197 2b3d
000003b0: e688 163e d762 383e 3976 30bd 4b22 53be
000003c0: c391 10be 5751 743e c992 b93d d3fc 183e
000003d0: 9b6f 1e3d 5419 49be 3aa1 c23d c122 bebd
000003e0: b59a a6bd a15c 6fbe 1764 80be aac5 4d3e
000003f0: 1246 853e 9428 693e 7909 83bc a993 213d
-0.26307103 0.14236113 0.29615507 0.22710764 -0.11358075 0.22741449 -0.06315668 -0.21168146
-0.13594037 -0.28858176 0.074524514 0.12513502 0.1400252 0.024990294 0.16864057 0.0466237
-0.2986335 -0.0618296 0.012358316 -0.38015765 0.17171744 -0.072151564 0.3227059 -0.20452984
0.029365597 0.17025395 0.22449672 0.25583038 -0.005180938 0.067636676 -0.22522585 0.21033175
-0.26474223 -0.011771594 0.32334867 0.08343612 0.012762207 0.21022493 -0.29198515 0.064759456
0.0026533364 -0.122917704 -0.22373113 0.25735784 0.25701064 -0.1843585 0.06523778 0.20555952
0.046420928 0.28763998 0.29968962 -0.14778292 0.123703495 0.2973757 0.19452909 0.029407151
0.18979909 0.021363286 0.31373546 0.072412275 0.04137536 -0.13544333 -0.2010649 0.06601165
0.0087076295 0.028042175 0.22885785 0.16719113 0.04520361 -0.015114467 0.10411158 0.06426165
-0.4077199 -0.14520638 -0.27665433 0.1453609 0.19280775 0.16804062 -0.3614995 -0.2325992
0.30228636 0.074780405 -0.14997937 -0.18396841 -0.07697168 0.0828792 -0.298039 -0.028110124
0.10251017 -0.017724838 0.32707638 -0.036233515 0.3274551 -0.14499205 -0.05729102 -0.13948211
-0.13960098 0.027647816 0.034737825 -0.007982102 -0.11694841 0.05750025 0.10266691 0.23708908
-0.23227452 -0.03360802 0.085615434 -0.18419197 -0.21325773 0.22132142 -0.054551966 0.1367951
0.3040389 -0.11437468 -0.030784743 0.106928885 -0.23526809 0.032237627 -0.1227692 -0.015210038
-0.08231194 0.24458113 0.19096805 -0.22463594 0.09926153 0.013926365 -0.3185532 -0.0022045518
0.06430582 0.40517187 0.25949383 -0.02663995 0.040265195 0.03736417 0.21918888 0.19534436
0.24607053 0.09400039 0.17874026 0.19316186 -0.014744035 0.16578875 -0.13520247 0.08786977
-0.109768875 -0.18075539 -0.10878117 0.029806519 0.32706076 0.07850864 0.016157793 0.15303694
0.17645335 0.2319245 0.26303512 -0.1584194 0.30991542 0.28214574 0.30445048 -0.19994356
-0.36054853 -0.1779069 0.3372914 0.24029216 0.2574172 0.15422308 0.10044483 0.12895633
0.34360597 -0.16672705 -0.26817396 0.02212419 -0.2309054 -0.3332563 0.09766092 -0.14600831
0.102056265 0.21905293 -0.28353596 -0.057901323 0.26597497 0.11676998 -0.34322459 0.2970557
0.021288544 0.07682681 0.17676777 -0.20233524 0.23474701 0.12987469 -0.20510404 0.024537329
0.18623748 0.18507929 0.012742132 -0.15364894 -0.2705243 0.12601781 0.1821346 0.016352009
0.19725105 -0.025070611 0.3134753 0.33285868 -0.17579359 -0.1249246 -0.019311769 0.3143845
0.18044811 -0.17956807 -0.26567787 0.16301557 0.3316294 -0.3504678 -0.11745204 0.114250675
-0.30208835 0.11551773 -0.22344834 0.23247556 0.14302646 -0.2800146 -0.19349022 0.0922808
0.055071805 0.038761765 -0.17929545 -0.072361425 0.16618778 -0.14456297 -0.23595326 -0.27498773
0.11797039 0.24290617 0.18904477 0.041892234 0.1470066 0.18006454 -0.043081496 -0.2061855
-0.14118104 0.23859154 0.090612 0.14940195 0.038680654 -0.19638568 0.09503408 -0.092839725
-0.08134977 -0.23375179 -0.25076362 0.20094934 0.26030022 0.22769386 -0.015995728 0.03944746

weight f4 [256, 256]
00000000: b229 84bc ef06 44bd 2ac9 1f3d a6e1 59bd
00000010: 610e 84bd 0c4c e33c dec4 78bd 9cbf eebc
00000020: f899 333c 5753 bd3b c8ca 373c dce3 10bd
00000030: 815a 56bc 916d a73c e4a2 683d 53e3 053d
00000040: a159 11bb e838 2dbd 7d0b 223d 4d94 6fbd
00000050: 5d30 4cbb 676c a2bc 80ed a3ba b865 9b3c
00000060: f5fa cdbc 5ccc 52bd a273 71bd 14b2 59bd
00000070: cdc4 b0bc 887b 563d 4fab debc 3a24 17bd
00000080: 8cbe a53c e2db 41bd 94e6 d6bc 50c0 c8bc
00000090: 9c36 19bc 43fb a4ba 98e6 68bc fd2f 563d
000000a0: 3960 14bd b382 443d 988a b63b b176 353d
000000b0: 60cf f03c 691c fdbc 214c ba3c 8fd2 30bc
000000c0: 3393 553d 203b 743d a4fd a4bc dd89 813d
000000d0: f01f 963b e03d 88bc 204a 333c 208c f6bc
000000e0: b0d0 23bb 605f 5a3d 5114 d73b 1245 44bd
000000f0: 2a6f 9b3c c801 603d 5667 78bd 00d5 56bc
00000100: 0667 09bd 93b6 063d f598 94bb 003d 41bd
00000110: 4fda b53c 05af fa3b e23b 0ebd 807f c33b
00000120: 5a88 2dbd dca0 d83c cd8a d83c b8e6 573d
00000130: 0e4e 5bbd a4c5 45bd 8876 46bd 3053 27bd
00000140: 2481 3b3d 1f2d 08bd f037 293d 788c cdbc
00000150: 8d2d 9a3c f8e3 e13c cae5 053d 17a0 263d
00000160: 9091 6f3c 087b 5dbd f978 493b 6921 4ebb
00000170: 8c48 bb3c 4cce fa3c ca5c 52bd a834 6ebd
00000180: 6d68 b4bc 9ecc edbc 6e11 02bd e6bb 2bbd
00000190: 6eca e7ba a741 ca3c 4edd 76bd fb42 323d
000001a0: 9129 e9bc 40f5 5c3c b1be eb3b 381c 803c
000001b0: 6204 2b3d cbb5 8abd 65ae df3c 28db 35bc
000001c0: 70ed 45bc dc33 7d3d 6a44 88bd 506e 67bd
000001d0: be60 09bc 385b 18bd a8f9 7c3d 349f 83bd
000001e0: e85a 37bd e8a3 05bc 7237 7b3d 8859 353d
000001f0: 2625 fdbc 28af 7fbd 7f9d 923c f01e 4bbc
00000200: 39e4 0abd be2a 3a3d c0e5 b63c 59d8 12bd
00000210: 020b 70bc 5089 983c 4b47 e73c 1865 6f3d
00000220: d005 eb3b 74eb f9bc b039 4cbc b720 81bd
00000230: 744f e53c 4c88 1ebc 64c2 f53b e089 9dbb
00000240: f7e1 883c 1c5d debc 445d 3d3d fc5b 2a3d
00000250: c03a 95ba 15ad 3dbc 3842 463c e39a 143c
00000260: 4489 8b3c 09b4 d63a e67c 673d 4698 3abd
00000270: 1114 06bd c264 413d 7bb2 13bd cc08 8abd
00000280: 31e9 12bd d010 c63b 1c83 1fbd 383f 37bd
00000290: 02e2 413d 0257 213c 6406 b93c 5529 0b3c
000002a0: 48e1 d3bc 55bb ae3c 54ab 4dbd c17b 0b3b
000002b0: 80c2 793c e825 a2bc 6e3f c2bc 66dd f5bc
000002c0: a03b 103d ff2b 8cbd b625 4c3d 23ba 86bb
000002d0: a835 533d c06b 99bc 0afb 003d a381 8bbc
000002e0: a64d f9bc efb3 2e3d 1071 5ebc 168a a9bc
000002f0: fac0 44bd 8991 57bd 8278 7e3b 9560 87bc
00000300: ecfb 0b3c 8cac d4bc 0e70 353c b616 193d
00000310: 941f a2bc a685 48bd 1ab7 103d 261b 73bd
00000320: 90a9 a13c e63c 6dbd 1e6e 2a3d 6a01 1d3d
00000330: 3a82 11bd 0441 cf3c 9868 30bd 48e6 f2bc
00000340: 520b 5ebd 20dc e93b 0e3d 5c3d 7040 913b
00000350: 5a6f 3d3d 4a77 15bd fe79 27bc 6a40 403d
00000360: 3e2b 75bd 06bb 55bd 8644 31bd 4cc1 13bd
00000370: 5073 8fbb 0260 653b dab4 4c3d 27b1 17bb
00000380: 82bb 4cbd 0c31 493d 74a5 fc3b e8ce 6e3d
00000390: 4051 bd3a 9882 64bd ecc5 99bb df80 7ebd
000003a0: ad6d 5b3d d23b 6d3c 9ce0 87bc 1c1b 28bd
000003b0: 73fb 34bd f26e 2fbc 8c95 a83c 58a2 6f3c
000003c0: c8b5 023d ca78 763d 1428 06bd 4841 26bc
000003d0: e45b 6dbd a8b8 62bb 30f7 bcbb 000f 8b39
000003e0: 04a4 bfbc 78d4 373d b727 82bd 0d7f c4ba
000003f0: 06e6 27bd 8453 0a3d 8a91 80bd d862 22bc
-0.016133163 -0.047858175 0.039010204 -0.05319371 -0.06448055 0.027746223 -0.060734622 -0.0291441
0.010962002 0.005777757 0.01121778 -0.035373554 -0.013083101 0.020437988 0.05679597 0.032687496
-0.0022178667 -0.0422906 0.039561737 -0.05849104 -0.0031156756 -0.01982708 -0.0012506694 0.018969402
-0.02514408 -0.051464424 -0.058948167 -0.053148344 -0.021578217 0.052363902 -0.027181296 -0.036899783
0.020232461 -0.047328837 -0.026232995 -0.024505764 -0.009351399 -0.0012587089 -0.014215134 0.05229186
-0.036224578 0.047976207 0.005570721 0.044302646 0.02939576 -0.030897336 0.02274138 -0.010792389
0.052142333 0.0596267 -0.020140477 0.063251235 0.004581444 -0.016631067 0.010942966 -0.030096114
-0.0024996214 0.053313613 0.006563701 -0.047917433 0.018973906 0.0546892 -0.060645424 -0.013112307
-0.033545516 0.03288896 -0.0045348355 -0.047177315 0.022198824 0.0076502585 -0.034725077 0.005966127
-0.042366363 0.026443891 0.026433373 0.052710265 -0.053541236 -0.048284188 -0.048452884 -0.04085082
0.045777455 -0.033246156 0.04131311 -0.025091395 0.018820548 0.027574524 0.032689847 0.040680017
0.014622107 -0.05407241 0.0030742271 -0.003145302 0.022861741 0.030615948 -0.05135802 -0.058155686
-0.02202245 -0.029028233 -0.031754903 -0.04192724 -0.001768423 0.024689509 -0.060269646 0.04352091
-0.028462203 0.0134862065 0.007194363 0.015638456 0.041752227 -0.067729555 0.027304837 -0.011099614
-0.012080535 0.061817035 -0.06653674 -0.056501687 -0.008384882 -0.037196368 0.06176153 -0.0642685
-0.04476443 -0.008156754 0.061332174 0.044274837 -0.030901503 -0.0624229 0.017897366 -0.012397513
-0.033909056 0.04545092 0.02232635 -0.035850856 -0.014651062 0.018620163 0.028232237 0.05844602
0.0071723238 -0.03050778 -0.012464926 -0.06305068 0.027991988 -0.00967605 0.00749998 -0.0048076957
0.016709311 -0.027144007 0.046231523 0.04159163 -0.0011385307 -0.0115769105 0.012100749 0.009070131
0.017033227 0.0016380559 0.056515597 -0.045555376 -0.03273398 0.04721523 -0.036058884 -0.06739959
-0.03586692 0.0060444847 -0.038943395 -0.044738024 0.04733468 0.009847404 0.022586055 0.008493741
-0.025864258 0.021329561 -0.05021222 0.002128348 0.015244126 -0.019793466 -0.023711886 -0.030012798
0.035213113 -0.06844329 0.04984065 -0.0041115447 0.051564842 -0.018728137 0.03148941 -0.017029589
-0.030432533 0.042652067 -0.013576761 -0.020695727 -0.0480356 -0.052629028 0.0038829152 -0.016525546
0.00854395 -0.025961183 0.011074079 0.037375174 -0.019790448 -0.048955582 0.03533087 -0.059352063
0.019734174 -0.057919405 0.041608922 0.038331427 -0.035524584 0.025299557 -0.0430685 -0.029650822
-0.054210015 0.0071368366 0.053769164 0.0044327304 0.04624877 -0.036490716 -0.010221956 0.04693643
-0.059855692 -0.052180313 -0.04327824 -0.036073014 -0.00437776 0.0034999852 0.04997716 -0.0023146363
-0.04998351 0.04911904 0.0077101532 0.05830279 0.001444377 -0.055788606 -0.0046927836 -0.06213462
0.05357139 0.014479594 -0.016586594 -0.04104148 -0.044185113 -0.010707604 0.020579122 0.014626108
0.03191164 0.060173787 -0.032753065 -0.0101474 -0.05794896 -0.0034594927 -0.0057667717 0.00026523322
-0.023393638 0.04488036 -0.06355231 -0.0014991477 -0.04099085 0.033771053 -0.062777594 -0.0099112615

bias f4 [256]
00000000: 07d1 a7bc 63a8 9e3c bb75 04be 4096 56bc
00000010: fb62 67bd 73e7 e93c 8e9b d23d b076 e1bd
00000020: 7518 5dbd 5fd6 ba3d a19b 023d a88a 9d3c
00000030: 895b acbd e6c8 f73b 3499 5a3d c980 7e3c
00000040: f5f1 65bd 72e6 833c 2919 873d 3080 d53c
00000050: 6133 d7bc 10e2 21bd ebee 473d 02fb a1bc
00000060: 1f2f fcbb f5c0 9fbd a682 e7bb 709e 933d
00000070: eee8 223d 85fa 1e3e da62 8b3d 8468 34bd
00000080: 22d8 6bbc d042 acbd 0ba9 cbbd a77f 2a3d
00000090: 8463 89bd bbcb d9bd e094 21bd 02b8 bc3c
000000a0: 304e 80bc 45f0 dd3c 1634 e53c 9dd5 7b3d
000000b0: ba17 68bd 0559 793d 19f0 21bd 1c53 023e
000000c0: b385 1bbc 6723 4a3c d6aa dcbc 5e08 23bd
000000d0: 3fe3 3dbd 3909 493d 2670 29bd c7a4 0ebc
000000e0: 8087 2c3b ee81 4abd 19c9 11be 72c1 0c3d
000000f0: 2faa 50bd 0370 15bd 4823 2ebd f9c0 ad3d
00000100: 593e 6d3d 8ded aabb f324 5d3a 6ee0 b4bd
00000110: 93d0 9e3d 252d 013d 94ee 26bd fe66 3bbd
00000120: c8ae 2f3c fb6f 8f3c 0b01 f93b ab81 07bd
00000130: 9d91 95bd 61a3 d1bc 5c8b e2ba a55a be3c
00000140: 6be3 ed3d 3b6b 3dbd be3b 703d 67ab ffbc
00000150: 9077 8cbd f03f 443d 7cb5 c93c bc9f 92bd
00000160: b90f 2cbd 9247 1ebd 970f 1a3e ce07 96bd
00000170: eec3 bc3d c6a4 c1bd 113b ec3d 08e3 103d
00000180: 6319 d0ba 581a 1bbc 10cc b9bd 85d7 1c3d
00000190: 4a60 e13d b1f2 de3c 0804 2dbd 1713 d33d
000001a0: 0f7b 9dbc af38 1d3d edb4 863d e316 67bd
000001b0: 1548 3c3d e5a7 d0bd 5d61 663c 6215 f53c
000001c0: 6bb4 e33c 1b21 9bbd 4524 40bd 130f 37bc
000001d0: 1ec9 ccbd 8248 1dbd 647a 793c acf5 4cbc
000001e0: a951 dcbc 4ecd d4bc 1c04 023d 264e 2b3c
000001f0: 8c50 b6bc 91ee fd3c 8e74 73bd 4b8b 593d
00000200: 56c1 78bd 8125 96bd 0e44 e13c c956 373d
00000210: 3368 ef3c 14dd 083d a141 8d3d e775 e3bd
00000220: 63bc ccbd 8f97 eabc 9eb9 033d 8950 e9bd
00000230: 849d c93c efe8 8ebd 313a 553d 0ede 04bd
00000240: b926 15bd 87ff bfbc 79ea 39bd 10c3 c63b
00000250: 5347 b1bd 000e f63c 6545 e4bc 23cc 0a3d
00000260: 4998 b13c 17e1 ccbd 253e 443d 60e2 dabc
00000270: cc10 643d 57c2 833a f7d7 203d a050 aabd
00000280: c368 24bd b274 fe3c 71b9 aebd ca25 313d
00000290: d17c b4bd 8352 51bd bf4f 5ebc a7e6 31be
000002a0: 312d a63c 99a1 dd3b ca27 90bc 74d3 b13b
000002b0: 43e5 e43c 5f6a 2b3d 0f0b d53d 86ba 99bb
000002c0: bfb9 983d 24e8 0f3d e324 f03b 3d1e bfbc
000002d0: 6101 30bd e789 80bd e1f8 52bd 94d8 bbbb
000002e0: 7f63 903d 291c 0f3d e5af c03c 78bc 38bc
000002f0: 4edf 973d 175d 87bd 731d 9dbd b047 99bc
00000300: 820c efbc 8a59 253d 3331 0b3e 8ed7 c53d
00000310: 4eef 1cbd 1361 bdbc 1427 b7bd 028a cb3b
00000320: 0a2a b83d 9df6 2abc 445d ce3d 02b0 08bd
00000330: afb8 b6bc f3e5 673d f40b acbc 2291 303c
00000340: ce53 04bc 304a a7bd 3f53 253c 51f2 e53d
00000350: 70f6 3abc 9894 303c 04d7 b23c 64ea 3d3d
00000360: 6bf4 8abd aa8f 823a a1cd 99bd 300b 37bd
00000370: ba5e 5abc 0f8e 183e ee46 80bc e946 20bd
00000380: ce2b 273e 54cc 0f3e cac2 59bc 906c 59bd
00000390: a16b c3bd 52bf 36bb d80f 87bd 1d15 92bc
000003a0: dfa8 35bd eb2a 03be 08c7 94bc acbc 9dbd
000003b0: 1d2d 833d 24f5 87bc c649 56bd 6bd9 9b3d
000003c0: 6267 7abd 8972 98bd 1c4c 9d3c 5d61 063d
000003d0: 5297 83bd 46a9 113d 201d 943c 4329 dd3d
000003e0: fcaf 593c 1ef7 42bd c611 7ebd 69ac 27bd
000003f0: 184f 6d3d 69f9 033e 1064 353d 9e76 b33c
-0.020485414 0.019367402 -0.12935536 -0.013097346 -0.05649088 0.028552746 0.10283576 -0.11008966
-0.053978402 0.09122919 0.0318867 0.019231156 -0.084158964 0.0075617908 0.053368762 0.015533634
-0.05613895 0.016101096 0.06596596 0.026062101 -0.026269617 -0.03952223 0.048811834 -0.01977301
-0.007696047 -0.078004755 -0.007065135 0.07207954 0.03977292 0.15525253 0.06805964 -0.044044986
-0.014394792 -0.08411181 -0.09944352 0.041625645 -0.06708434 -0.10634562 -0.03944862 0.02303696
-0.015662283 0.027092109 0.027978938 0.061483014 -0.056663252 0.06087591 -0.039535616 0.12727016
-0.009492326 0.012337542 -0.02693693 -0.0398029 -0.046359297 0.04908106 -0.04136672 -0.008706278
0.0026325881 -0.049440317 -0.14236869 0.03436417 -0.05094355 -0.036483776 -0.042514116 0.08484072
0.057920787 -0.0052163065 0.0008435987 -0.08831869 0.07754626 0.031537194 -0.04075487 -0.045752518
0.010722823 0.017509451 0.0075990013 -0.033082645 -0.07303164 -0.0255906 -0.0017283964 0.023236582
0.11615642 -0.04624484 0.058650725 -0.03120966 -0.06858742 0.047912538 0.024622671 -0.07159373
-0.04200718 -0.038642474 0.1504501 -0.073257074 0.09217058 -0.09455256 0.115347035 0.035372764
-0.0015876706 -0.00946673 -0.09072125 0.038291473 0.11004694 0.027215334 -0.042240173 0.103063755
-0.019223718 0.038384136 0.065774776 -0.05641831 0.04596718 -0.10188273 0.014061299 0.029917423
0.02779599 -0.07574674 -0.04690959 -0.011173028 -0.099992976 -0.038399227 0.015226934 -0.012509745
-0.026894407 -0.025976803 0.0317422 0.010455644 -0.022255205 0.030997546 -0.059437327 0.053111356
-0.060731255 -0.07331372 0.027498271 0.0447605 0.02922449 0.03341396 0.06897283 -0.111064725
-0.099968694 -0.028636722 0.03215944 -0.11392314 0.024611242 -0.06978022 0.05205745 -0.03243833
-0.036413882 -0.023437275 -0.045389626 0.0060657337 -0.08656182 0.030035973 -0.027865121 0.033886086
0.02167906 -0.1000387 0.04791083 -0.026719272 0.05568008 0.0010052425 0.03926846 -0.08316159
-0.04013897 0.031061504 -0.08531464 0.04324893 -0.08812869 -0.05110408 -0.013568818 -0.17373143
0.02028522 0.0067636487 -0.017597098 0.0054268185 0.027941352 0.04184949 0.104025 -0.004691425
0.07457303 0.035133496 0.007328616 -0.023329848 -0.042970065 -0.06276303 -0.05150688 -0.0057326052
0.070502274 0.034938965 0.023521373 -0.011275403 0.07415639 -0.06609552 -0.076716326 -0.018710941
-0.029180769 0.040368594 0.13592987 0.096602544 -0.038314156 -0.023117578 -0.089430004 0.00621152
0.08992393 -0.010434774 0.10076383 -0.03337098 -0.02230486 0.05661578 -0.021001793 0.01077679
-0.008076621 -0.08168447 0.010090648 0.11227859 -0.011411294 0.010777615 0.021831043 0.04636611
-0.067849 0.0009961028 -0.07509924 -0.044688404 -0.013328249 0.14897941 -0.015658822 -0.039130125
0.16325304 0.14042789 -0.01329107 -0.05308205 -0.09542013 -0.0027885032 -0.06594819 -0.017832333
-0.0443505 -0.1280934 -0.018161312 -0.07702002 0.06405089 -0.016596384 -0.05231645 0.076098286
-0.06113375 -0.07443721 0.01920133 0.032807697 -0.064253464 0.035561822 0.018080294 0.10798886
0.013286587 -0.04759895 -0.06202867 -0.040935908 0.057936758 0.12888111 0.04428488 0.021907147

weight f4 [7, 256]
00000000: f53e 91bc d922 32bd bb00 b7bc d47a d93c
00000010: 7e9f 23bd c7ea 71bd 9c69 793d e185 073d
00000020: 1864 d73c 6177 96ba 01a5 2bbd d0ed 7c3c
00000030: 60a4 65b9 7e0c 833c 1a8b 90bd aac1 7e3d
00000040: 59b4 763c b68d 51bd f4c1 953d 88ad 23bb
00000050: fea0 4dbd b81c 273d 0b7a e13c 6d32 bd3a
00000060: 983f 883d bba6 c33b ddcd 51bd d9ef 4c3c
00000070: 99a8 003d 1391 963d b507 f1bc 241e 2a3d
00000080: 5882 033d 8fc1 063d 0e2b e4bc 41ff a5bc
00000090: fcde 133d 7380 e23c f852 103d 0b46 9c3b
000000a0: 94e2 50bd 2211 553d 34d2 19bd 3578 2bbd
000000b0: 43a5 13bd 24ed 70bd d2f5 73bc 1366 013d
000000c0: 2089 343d aec2 3cbd 1c7c e1bc a4a5 643d
000000d0: ba45 da3b 4881 973d 9f6c 6abd c445 b8bc
000000e0: ea0e 5f3c 0189 063d 2d93 503c 7ffd 5ebd
000000f0: a344 eabc de8c 35bd 23ab 613d 4b03 3fbd
00000100: 0776 94bc 5e63 e83c 4a63 adbc 0614 993c
00000110: cbdf 953d f40a 5c3d 4a81 283d 86ec e43c
00000120: dcea f73c 21f0 23bd beea a13b b269 ee3c
00000130: 9c5d 7cbd faee 01bd 8271 5b3d ff9c cabc
00000140: e572 0a3e 6b7a a339 827c 743d a5cd 063d
00000150: 8beb 18bd 5dff b63c 843c 1c3c 0fed 1b3d
00000160: fea9 423c 993f a03c 1761 5b3d 4d2b 59bd
00000170: c7f0 b23d cd9b 24bd 372f 743d 117f 08bd
00000180: ff42 933c db4a 973c ded4 a8bc 3b7b c3bc
00000190: 4df8 4ebc 9fca 393d 52f1 f0bc 7c70 b0bc
000001a0: 9a70 cc3b 186a da3c 9c5f 81bd 9956 c23c
000001b0: 4d8b c83b 2daa 373d 8ef1 8dbc c168 793c
000001c0: 5fb8 bfbc 3bd4 2f3d 0ea8 543c e2ae 0ebb
000001d0: a1d5 0a3d 894f 79bc f8f5 273d 234b 7a3d
000001e0: 823b 243c 9f9a 243d 63c2 e03c 28cf f0bc
000001f0: 979f da3b 00ad 72bd 1dd2 463d e7e2 99bb
00000200: 00ae cb3c edbc 56bd 52ae 983d 58bd 073d
00000210: 26ea 123d 98d3 69bc de4c 3abd 9ed0 0f3c
00000220: ea6b 6a3c 2bae 7bba a737 32bd ecbd 253d
00000230: c217 fabb 40ae 893b 9260 933d fd79 303d
00000240: 9150 a83c 486e ccbc cbec ccbc 1e81 713d
00000250: 634a 8ebd c60c 243d d1ff 80bc e4f0 953c
00000260: f774 11bd 1e8b 503d d7e4 65bc 614d 9b3b
00000270: 2c81 4b3d 68f8 023b 3454 60bd f7fc 23bd
00000280: c10c b6bd 34d2 abbc 4176 243d 2528 473d
00000290: b74e a5bd c3a6 163d c939 85bd d371 3abd
000002a0: 64ee 0abb d917 60bb ccc1 febb afaa 023c
000002b0: 7c67 66bc 1a40 e33c 1c86 e33b 9a44 a13c
000002c0: e04d d73b 0e2c b23c aa4c 2d3d 14c3 b5bc
000002d0: bfb3 1bbd 32c3 c7bc 98bd 9fbc da97 373c
000002e0: c803 be3a 038e 233c c15b 053d 2ea5 7dbd
000002f0: e13a a93c 8bd6 973c 7b65 c2bc 775a 243d
00000300: d2bd 683d 711d 573c dc1a 983d 5b9d cdbb
00000310: 90a6 df3b c794 1d3d 2efe 70bb dbe9 54bd
00000320: ac4d 733d dd42 b63b 5efd 3abd eab7 9f3c
00000330: 5fac 85bd effd 2cbd 852d 33bd 47c7 403d
00000340: d3f7 49bd b24b 263d 1331 1dbc c86d 353d
00000350: d62b 4ebd 7cfe 3f3d 205e be3c c62e 94bc
00000360: 7308 56bc d89f 193c b492 e3bc 26c2 9138
00000370: 57ef 813a 6eb3 fe3d 17a2 72bb 1980 e73c
00000380: 34e0 edbc 30ca 4dbd 62e9 2dbb 5269 8cbc
00000390: 8a29 b63c 88be 0b3d a022 273d ef85 15bd
000003a0: f421 0abd fe14 de3a b1d5 153d a468 0bbc
000003b0: e8ba 203d 55ab 693d d8cf 3d3d 2d93 0bbe
000003c0: ea4c e7bc fad3 5e3d bafd 4e3c 0aee 563c
000003d0: ddfd 24bd f8df 863d 7076 febc f1ad b43d
000003e0: 0f1e 87bc 9446 52bd 3b54 073d f381 ae3c
000003f0: 3ffc 29bd cfa3 14bd 38ea 193d a6cd 953c
-0.017730216 -0.043490265 -0.022339216 0.026547827 -0.039947025 -0.05906179 0.060891733 0.03308666
0.026292846 -0.001147967 -0.041905407 0.015437558 -0.00021900376 0.015997168 -0.070577815 0.06219641
0.015057647 -0.051160537 0.07312384 -0.002497526 -0.050202362 0.040798873 0.027524015 0.0014434584
0.066527545 0.0059708036 -0.051221717 0.012508356 0.031410787 0.073518895 -0.02942262 0.04153265
0.032106727 0.032899436 -0.027852561 -0.020263316 0.036101326 0.02764914 0.035235375 0.004769092
-0.05099733 0.052018292 -0.03755398 -0.041862685 -0.036046278 -0.058819905 -0.014890151 0.031591486
0.044076085 -0.0460841 -0.027525 0.05582203 0.006661144 0.07397705 -0.057232495 -0.022494204
0.013614396 0.0328455 0.012730402 -0.05444097 -0.028597182 -0.044323795 0.05509485 -0.046634
-0.018122686 0.028367694 -0.021165509 0.018686306 0.07318076 0.053721383 0.041138925 0.027944814
0.030263357 -0.040023927 0.0049413135 0.029103134 -0.06161271 -0.031722046 0.053575046 -0.024733065
0.13520391 0.0003118099 0.059689052 0.03291096 -0.037334006 0.022338564 0.009535912 0.038067874
0.01188135 0.019561576 0.05355939 -0.05301981 0.08737331 -0.040187646 0.05961534 -0.033324305
0.017976282 0.018468311 -0.020609315 -0.023862472 -0.012632442 0.04535925 -0.029411945 -0.021538012
0.006239009 0.026661918 -0.06317064 0.023722934 0.0061201216 0.044840027 -0.017327096 0.015222729
-0.023403345 0.042927008 0.0129795205 -0.0021771719 0.03389514 -0.015216717 0.04100606 0.061106812
0.010023953 0.04018652 0.02743644 -0.029395655 0.0066718566 -0.059247017 0.048540223 -0.0046962383
0.024863243 -0.052426267 0.07455124 0.033139557 0.035867833 -0.014271639 -0.045483463 0.008777766
0.014307955 -0.0009600843 -0.043510105 0.040464327 -0.0076322267 0.0042016804 0.07196154 0.043085087
0.02054623 -0.02495493 -0.025015255 0.058961026 -0.06947782 0.040051244 -0.015746983 0.018303342
-0.035511937 0.050913922 -0.01403161 0.004739449 0.049683735 0.0019984487 -0.054767802 -0.040036168
-0.08889151 -0.020974256 0.04015184 0.04862227 -0.08071654 0.03678013 -0.06505162 -0.045518707
-0.002119922 -0.0034193902 -0.007774567 0.007975264 -0.014062759 0.027740527 0.0069434773 0.019686032
0.0065705627 0.021749523 0.04230944 -0.022187747 -0.038013216 -0.024385069 -0.019499585 0.011205638
0.0014496977 0.009982589 0.032558206 -0.061925106 0.020657958 0.01853492 -0.02373003 0.040125336
0.05682165 0.013129578 0.07426998 -0.0062748617 0.0068252757 0.038471963 -0.0036772597 -0.051980834
0.059400246 0.00556217 -0.045651786 0.019496877 -0.06527018 -0.042234357 -0.043744583 0.047065046
-0.04930861 0.040599532 -0.00959422 0.04429415 -0.050334774 0.046873555 0.023238242 -0.01808871
-0.013063538 0.009376489 -0.027779914 6.950302e-05 0.0009913248 0.12436567 -0.0037022883 0.028259324
-0.029037572 -0.05024165 -0.0026536812 -0.017140064 0.022236604 0.03411725 0.040804505 -0.036504682
-0.033723786 0.0016943512 0.036580745 -0.008508835 0.039240748 0.05704816 0.046340793 -0.13630362
-0.028234918 0.054401375 0.012633735 0.013118276 -0.040281165 0.065856874 -0.031062335 0.08822239
-0.016493825 -0.05133684 0.033039313 0.021302199 -0.041500326 -0.036289033 0.037576884 0.018286537

bias f4 [7]
00000000: e18b 953d d9b7 dabc fed7 67bd 8186 313d
00000010: 0be1 4a3a f228 97bc e096 2bbd
0.073020704 -0.026698994 -0.05660247 0.043341164 0.00077392225 -0.018452141 -0.041891932
